Neural Nets/net.model (torch, 53057 bytes, 12 tensors)

weight f4 [12, 3, 4, 4]
00000000: b0e0 133e 419c 723e 21fa fd3d 6aff 3b3e
00000010: a85a be3d 730c 373e 8927 1a3e 13a0 103e
00000020: 0733 2d3e 50c6 fab8 8a94 8d3e a899 1e3e
00000030: dc8b f73d 2151 dc3c 03ed 8b3d cad9 e23c
00000040: c970 0c3e 7a9e ae3d ddce 2f3d 954f df3c
00000050: 1546 dfbc 42a3 3b3c 8ee9 3f3d 79a7 db3c
00000060: 2619 9ebd 4d83 53bd 00f8 c6bc cc08 ccbd
00000070: d02a bf3b ea0d 80be 4136 8b3b a32d 72be
00000080: 456b 923d 4953 523d 704f 403d 36fd f83d
00000090: 1632 363c d712 c63d 7504 de3d b44d 4fbd
000000a0: 54a1 0d3e 6da4 863c a8b0 0d3e 20be 2a3e
000000b0: 8e33 433e 1638 98bd f6ad 1f3d 9a86 a8bc
000000c0: 3885 c2bb 07df c3be 52e4 c4be e09a 69be
000000d0: c0a2 50be f29e edbd 4786 0dbe 82a0 09be
000000e0: b514 cdbd c766 a9be 6ffb 53be 407a d5be
000000f0: 30f4 a7bd 1258 bfbe 24aa 1abe c19e 86be
00000100: 6457 723d 08cc 0cbe 10ec 6b3d db77 dfbd
00000110: 5242 963c 1173 82bd becb 3c3e f497 153d
00000120: debe 6c3e f503 24be ae47 4abe 1397 4ebe
00000130: 458d e8bc fc38 afbc 26a7 243d 36a0 a13d
00000140: ec4e 0f3e a3e0 38bb f8fd 2e3e b35e ac3c
00000150: f2cb 013f 83fb 993e f095 c73e 53d9 853d
00000160: 5f58 bf3e 998b ba3e d637 993e 966b 103e
00000170: ccf2 013f c432 cd3e fe4c 793e 4795 3b3e
00000180: 5c47 c03e 3689 f03d 0327 fb3d 8a8a 853d
00000190: 76aa a13d 7c0c 8abd 36a7 a2bd e473 f4bd
000001a0: b6ce 033e 9ab9 6fbe e3b6 17be 2c44 89bd
000001b0: 7596 47bd 4c54 16be d3a4 663d 58da 903c
000001c0: a64d ae39 dbe1 82be c326 47be dd0b 12be
000001d0: c3c8 47bd fb7f cabe d554 93be f0f6 83be
000001e0: 66b2 3cbd c387 8ebe 37fd d4bd ae20 1bbe
000001f0: f9fb 43be 0c07 78be b808 41be 37b2 50be
00000200: 31af 813e d968 733c 9106 613e 38c8 2e3e
00000210: c0fb 713d 0b5c 983d b461 9dbb d9c2 193d
00000220: 8ed7 063d 58f4 25be 3786 b33d 8691 313d
00000230: 7c23 913d 70fb 24be 69fc 2b3d 7d5c 03be
00000240: 1930 a23d 1c11 203e 867d 0d3c b4f9 823d
00000250: 6b40 9c3e 8383 c2bd 331a 52bd 38f9 4cbe
00000260: 8fea 483e 70a5 b23c 3bb9 1dbc ac0f 61be
00000270: dd30 a73e e6ac 2b3e 6021 34be e94b 84be
00000280: 2672 4d3e 1c12 ed3d fec9 abbd 3f7b 89be
00000290: b6ee 4d3e 7516 2ebd 6efd 55be 9123 c4bd
000002a0: 5ceb 2b3e ca79 09bc 9baa 82be 9004 31be
000002b0: 249f 913e 6be0 ad3c 34d9 a0be d32c 62be
000002c0: bc08 ab3d 8fd9 553e 85e6 84bb 002c b0be
000002d0: 88e1 b93e 151d 3e3e 4cc5 aebd 0795 87be
000002e0: 65be f03e 8e34 973e 3ce6 9abd 7905 1ebe
000002f0: 39ee d03e 866d 4f3e f76f 79be 2ad5 37be
00000300: a058 213e 2ca4 863e 6d0f 143e 34d5 42bd
00000310: 2391 64be 6ed2 7bbe 8001 bd3e d6d2 013f
00000320: 3361 9cbd ef27 6cbe 8738 e23d f23e 273e
00000330: 194f 173e dd0a 283c 52a9 dfbe b21d f3be
00000340: febd f23c f3a2 493e 954e 763e 483b 093c
00000350: c612 afbe 67b6 c7be 154e 883e 682f 023f
00000360: c0db 2f3e 6e3e 2fbe 3919 433d 5d56 49bd
00000370: b864 283e 11a4 a73e 2a83 b2be c157 d4be
00000380: d377 37be e4b4 c13d eded 213c e2de 79be
00000390: 0df3 b2be c8fd 09bf 8b61 3abd 0d5e 913e
000003a0: f083 8a3e 1fec f7bb 372d a03d 4bba 4d3c
000003b0: 36cb b93e 56dd 723e 7863 38be c0ba b7be
000003c0: f6ae 003e b0f8 9c3b 9479 e83d 7e08 debd
000003d0: 29bd 7dbe 5126 6bbe 698e c4bd 95d5 e8bd
000003e0: 276c 89be 91bf d2bc 9989 34bd 604a 44be
000003f0: 3ec3 8fbe e7a6 51be 8be8 f9bd 7828 8abe
0.1444118 0.23692419 0.12401224 0.18359151 0.09294635 0.17875843 0.15054144 0.14123563
0.16913997 -0.000119578675 0.2765239 0.15488303 0.12087223 0.026894154 0.06832316 0.02769174
0.13714899 0.08526321 0.04292189 0.027259627 -0.027255097 0.011452498 0.046853594 0.026813256
-0.077196404 -0.05163889 -0.024288177 -0.09962615 0.005833961 -0.25010616 0.004248411 -0.23650222
0.07149366 0.05134896 0.046950758 0.12157671 0.01112034 0.09671562 0.10840694 -0.050611213
0.13831073 0.016435826 0.1383692 0.1667409 0.19062635 -0.074325725 0.03898426 -0.020571996
-0.005936291 -0.38256094 -0.38455445 -0.22812986 -0.20374584 -0.11602582 -0.13820754 -0.13440135
-0.10013715 -0.33086225 -0.20701383 -0.41694832 -0.08200872 -0.3737188 -0.15103966 -0.26292995
0.059165373 -0.13749707 0.057598174 -0.109115325 0.01834217 -0.063696034 0.18437096 0.036521867
0.23119685 -0.16017134 -0.19753906 -0.20174818 -0.028387675 -0.021389477 0.040198468 0.07891886
0.1399495 -0.0028210066 0.17089069 0.02104125 0.5070182 0.300747 0.3898158 0.06535592
0.3737211 0.3643463 0.29925412 0.14103541 0.50761104 0.40077794 0.24345776 0.18318664
0.37554443 0.11744921 0.122633 0.06520565 0.07893841 -0.067406625 -0.07942049 -0.11936167
0.12871823 -0.23410645 -0.1481586 -0.06702456 -0.04872747 -0.14680594 0.056309532 0.01768224
0.0003324572 -0.2556294 -0.1944838 -0.14262338 -0.048775446 -0.39550766 -0.2877566 -0.25774336
-0.04606857 -0.27837953 -0.103998594 -0.15149185 -0.19139089 -0.24221438 -0.18850982 -0.20380484
0.25328973 0.014856541 0.21975161 0.17068565 0.059077978 0.07439431 -0.004802907 0.037539337
0.032920413 -0.16206491 0.08765834 0.043351673 0.07086846 -0.16111541 0.041988764 -0.1282825
0.0791933 0.15631527 0.008635884 0.06395283 0.30517897 -0.0949774 -0.051294517 -0.20016944
0.19620727 0.021807402 -0.009626682 -0.21978635 0.32654467 0.16765174 -0.17590857 -0.25839165
0.20063075 0.1157572 -0.08388136 -0.26851842 0.20110592 -0.042501885 -0.20897457 -0.09577096
0.16789001 -0.008390853 -0.25520787 -0.17286897 0.28441727 0.021225175 -0.31415713 -0.22087412
0.08351275 0.20883773 -0.0040558004 -0.3440857 0.3630488 0.18565781 -0.08533725 -0.26480886
0.4702026 0.29532284 -0.07563445 -0.15431775 0.4080675 0.20256624 -0.24359117 -0.1795241
0.15756464 0.26297128 0.1445901 -0.047566608 -0.2232099 -0.24591991 0.36915207 0.50712335
-0.07635727 -0.23062108 0.11045938 0.16332605 0.14776267 0.010256496 -0.4368387 -0.47483593
0.029631611 0.19691066 0.24053414 0.00837595 -0.3419401 -0.3900635 0.26622072 0.50853586
0.17173672 -0.17113659 0.047631476 -0.049154628 0.16444671 0.3274236 -0.34865695 -0.414732
-0.17916803 0.0945833 0.009883386 -0.2440143 -0.34951058 -0.53902864 -0.04550318 0.28392068
0.27053785 -0.0075659896 0.07821124 0.012556623 0.3628785 0.23717245 -0.18006694 -0.35884666
0.12566742 0.004790388 0.11351314 -0.108414635 -0.2477919 -0.22963835 -0.09597475 -0.113688625
-0.26840326 -0.025726112 -0.044076536 -0.19168997 -0.28078645 -0.20473824 -0.12202557 -0.26984

bias f4 [12]
00000000: 7c5f e3be 863c f03d 5734 98be e133 f5be
00000010: 7b65 1bbf 648e d0be 9da8 22be 35c3 bcbd
00000020: 0476 b4be db10 9cbe ecb0 0fbf 14c6 30bf
-0.44408786 0.11730294 -0.29727432 -0.47891143 -0.6070172 -0.40733635 -0.15884633 -0.0921692
-0.3524629 -0.3048161 -0.56129336 -0.69052243

weight f4 [36, 12, 3, 3]
00000000: f97b 843e 12e6 b73d 495f cdbb 3c0f b33d
00000010: a05c 463c 55a9 c9bd 67b0 1dbe 752d a0be
00000020: 3642 e6bd 6820 80bd 783c bc3c 422c b4bd
00000030: 47ac 85bd c45a 833d fd90 38be c0ce b83c
00000040: cf0d 44bd 648e 23be 7f2b 013e 3666 213d
00000050: 697a ac3d 57fd 703b 786c 993d ff49 57bd
00000060: 00a6 a0bd 8e0a cc3d 6546 a73c 9976 cfbd
00000070: 1118 0bbe 3944 21be fcce e13d c1e9 323e
00000080: d031 d3bd 67e9 953e 62c4 2b3c 9460 a0be
00000090: f307 283c 8577 9abe c4a1 8cbc 3a08 833e
000000a0: 90fe 62bd 2fca bd3c 6da3 613d 9411 69be
000000b0: 9953 e93d dd7c 083e c8e3 903d bcd4 a4bd
000000c0: 11a1 f7bd bcf1 e73d 4a1d 3fbd ac2f 13bc
000000d0: 4aca ee3d 5a05 28bd 6dbb 963d d171 833d
000000e0: 32dc 8dbe 7067 a0bd d0d8 bb3d 9d00 683d
000000f0: 0294 17ba d677 a2bd 1437 263e 24ec ea3c
00000100: c731 eb3d 6b62 58bc 9196 b6bd d1aa b13d
00000110: eeda 2ebe 9dc5 0cbe 538a 9abc 8743 3a3e
00000120: 3793 88be eba1 823e 0715 11be b64e 883d
00000130: ec83 d93d aff6 acbd 5770 8e3d 21e8 5c3e
00000140: e350 40be a1c4 06be f128 42bd c9a3 81bd
00000150: 48e2 0a3c b3c1 0bbe fc40 fcbd 55aa 903c
00000160: 2087 9bbd 2523 29be e1f1 4ebe 7a2c 55be
00000170: 1188 82bd 0b76 21bd 1269 35bd 3e51 e0bc
00000180: 0d0a f6bd 0124 edbc b655 1cbd 4506 ebbd
00000190: 6dcb 82be 17d0 5cbe f61d fe3d f711 58be
000001a0: 3039 aa3e bd90 a63d b53b 893d 7e7d 4fbd
000001b0: 7972 c93d fc51 083c 865a c9bd 019e 173e
000001c0: 7110 8f3d fa22 cabd ec6c 56be 2fb5 41be
000001d0: dd1e 7abd 44be 2dbc cd6a 1c3e 7eff 823e
000001e0: 3fd9 f0bd 497a e5bc cb20 38bd 2aa3 f63c
000001f0: eb2a 26bd d420 42be 3516 63bd 0086 b03c
00000200: 316b d53d d8be 96be 0fe2 babd c33f 99bd
00000210: 2099 aabd d3d9 8c3d 678c 703d 9391 873e
00000220: bd01 c2bb 5187 2e3e 124e 4bbe 0785 7ebe
00000230: 2fab f1bd 860c 72be 4f38 23bd 39a6 efbd
00000240: 3662 83be 5722 6fbc 3fb5 4bbe d44d 893e
00000250: 00ba be3c d315 40be 9bbe 613e 1cbf 9d3e
00000260: 1476 573e 549f 2cbe 588e 0c3d 3721 243e
00000270: e32d 99bd 2b75 4eb8 7416 41bd b84a 4abd
00000280: 5f68 8dbc 527e 143e 9661 43bd 3fd8 113d
00000290: f311 dcbc 6058 8a3d 46a7 c33d 6f7f 66bd
000002a0: 9922 7e3b 2b7c 3dbd c380 c23c c986 313e
000002b0: 6c31 e63c 1bfd 5f3c c5db d7bc f00a ffbc
000002c0: c5de cebd 4c88 cd3d 6410 e8ba c7c2 2fbe
000002d0: b8df 113e a271 733e c703 393e c695 673c
000002e0: e1ac 4dbe 4112 aebd a899 293c 5a3c 16bc
000002f0: 51c6 26be 3c08 ca3d 0be0 193d 1155 e9bc
00000300: ddd2 9b3d 6bda 673c 2f78 223c ec26 9e3d
00000310: 8d77 b8b9 032e 2dbe 2d11 bb3a 8617 3abd
00000320: 9707 13be 2d73 283e 6fa0 7b3d a4b7 5f3d
00000330: c67c 763d 3877 88bd 80ac 8f3d 5812 91bd
00000340: 8f0f dfbd 166a 26bd 2ca0 a73d a0d0 f73d
00000350: 3801 bebb 9098 91bc 22f6 643c d2cc e83c
00000360: 8b4f f1bd a592 1abe 5d41 24be 7128 803d
00000370: 238f 243d f7d8 67be 4bcd b0bb d404 68bd
00000380: 1a33 4fbe c2c4 59bd 4e4a 013e 1cbf 16be
00000390: cd1c e2bd 69a9 cc3c b705 4dbe 3d1d bcbd
000003a0: d803 123e 593c 98bc 11a5 38be b69d 723d
000003b0: b28b 06be e6fd 41be b7a7 083d d538 a1bd
000003c0: a702 d1bd ae63 0c3e a680 2b3e 29d3 1bbe
000003d0: b576 6fbe c365 3abe 95a2 41bc 90a3 d33d
000003e0: 9608 bfbd 8b16 d9bd 05e2 15ba 06e4 f9bd
000003f0: bf30 03be bee8 45be b6d9 f1bc d4c1 65be
0.25875834 0.08979429 -0.0062674624 0.0874314 0.012107044 -0.09846751 -0.15399323 -0.3128468
-0.112430975 -0.06256181 0.022978052 -0.08797504 -0.06527 0.064137965 -0.18024059 0.022559524
-0.04786473 -0.15972286 0.12614249 0.039404117 0.084217854 0.0036772096 0.07491392 -0.052560803
-0.07844162 0.09962951 0.020419309 -0.101300426 -0.135834 -0.15748681 0.11025807 0.17471983
-0.10312235 0.29279634 0.010483833 -0.31323683 0.0102558015 -0.3016931 -0.01716698 0.25592214
-0.05541855 0.023167698 0.055087496 -0.22760612 0.11392898 0.13328882 0.07074696 -0.08048388
-0.12091268 0.11325404 -0.04665879 -0.008983534 0.11659677 -0.04102073 0.073599674 0.06418193
-0.27707058 -0.07832229 0.09172213 0.05664121 -0.0005782248 -0.07933013 0.16231948 0.028677054
0.11484104 -0.013207058 -0.08915437 0.08675159 -0.17075703 -0.13747258 -0.018864786 0.18189822
-0.26674816 0.2551416 -0.14168178 0.06655638 0.10620865 -0.08445489 0.06955021 0.21572925
-0.18780856 -0.13160945 -0.047402326 -0.06330068 0.008476801 -0.13648109 -0.12317082 0.017659346
-0.075941324 -0.16517313 -0.20209457 -0.20817748 -0.06373609 -0.039419215 -0.044289656 -0.02738249
-0.12013636 -0.028947832 -0.038167678 -0.11475805 -0.25545827 -0.21563755 0.12408058 -0.21100603
0.33246756 0.081330754 0.06700841 -0.050656788 0.09836287 0.008320328 -0.09831719 0.14806367
0.06985558 -0.098699525 -0.20939988 -0.18916772 -0.06106459 -0.010604445 0.15275116 0.2558555
-0.117601864 -0.028012412 -0.04495315 0.0301071 -0.040568274 -0.18957835 -0.0554411 0.021548271
0.10420836 -0.29442477 -0.091251485 -0.07482865 -0.083299875 0.06877484 0.058727648 0.26478252
-0.0059206174 0.17043807 -0.19854 -0.24855433 -0.11800229 -0.2363759 -0.039848622 -0.11701626
-0.25660866 -0.01459559 -0.19893359 0.2681719 0.023282051 -0.18758325 0.22045366 0.30809867
0.21041137 -0.16857654 0.034315437 0.16028295 -0.07479455 -4.922335e-05 -0.047140554 -0.049387664
-0.017261682 0.14501312 -0.047700487 0.03560662 -0.026864028 0.067551374 0.09553389 -0.056273874
0.0038777946 -0.046260994 0.023743039 0.17336573 0.028099738 0.013671185 -0.026349911 -0.031133145
-0.10101084 0.10035762 -0.001770508 -0.17164145 0.14245498 0.23773816 0.18067847 0.01413483
-0.2008548 -0.084995754 0.010351576 -0.009169662 -0.16286589 0.09864852 0.03756718 -0.028482946
0.07608578 0.014151196 0.009916349 0.077222675 -0.00035184287 -0.16912083 0.0014272087 -0.04543259
-0.14358364 0.16450186 0.0614323 0.054618493 0.060177587 -0.06663364 0.07015324 -0.07083577
-0.108916394 -0.040628515 0.08184847 0.12100339 -0.005798485 -0.017772943 0.013974698 0.028417978
-0.1178275 -0.15095003 -0.16040559 0.062577136 0.04017557 -0.2264136 -0.0053955666 -0.05664523
-0.20234337 -0.05316616 0.12626001 -0.1472134 -0.110406496 0.024983125 -0.20021711 -0.09185264
0.14259279 -0.018583464 -0.18031718 0.059232436 -0.13139227 -0.18944511 0.03336307 -0.07872168
-0.10205584 0.137099 0.16748294 -0.1521727 -0.23385127 -0.18202882 -0.011818548 0.103339314
-0.093278095 -0.10600003 -0.00057175785 -0.12201695 -0.12811564 -0.19327065 -0.029522758 -0.22437221

bias f4 [36]
00000000: c134 08be 0081 5ebe d519 bdbc 3bc8 883d
00000010: ad27 c0bc 9b70 87bd eb40 373d 751f dc3c
00000020: 778b 03be 2866 443b 95bf 15be cb47 10be
00000030: 1499 f5bd c0ed 473c 3223 d0bd 4da8 713e
00000040: a9e1 233d 18ec 2ebe 6986 39be 5558 5bbd
00000050: cbf0 873b 3480 81be 7337 9dbd 7e3c a63d
00000060: 4bde 08be 2cda a9bc e9a9 fe3c 9c37 9f3b
00000070: 20a7 c0bd c8b9 a8bd 213d 4ebd 63e1 063e
00000080: eb92 cdbd e048 403c 2fa0 6e3d 7241 c43b
-0.13301374 -0.21728897 -0.023083607 0.06678816 -0.023456419 -0.06613275 0.044739645 0.026870469
-0.1284617 0.0029968116 -0.14623864 -0.14089887 -0.11992088 0.01220268 -0.10162963 0.23599358
0.04001013 -0.1708225 -0.1811768 -0.053551037 0.004148578 -0.25293124 -0.07676592 0.08117007
-0.13366048 -0.020733915 0.031086879 0.004858924 -0.094068766 -0.0823856 -0.050351266 0.13171916
-0.10037788 0.011736125 0.05825823 0.005989247

weight f4 [4, 324]
00000000: 9448 07bd ca5f 453e bc3e 15be 2b29 193e
00000010: f76b debc fe76 90be 64f5 2cbd d6a8 9bbd
00000020: 1da2 28be ea0e 29be d897 e9bd ff0c 8fbe
00000030: 4709 12be 1971 20be 6d67 3d3d 3d8c 363e
00000040: 7114 7a3e b1bc b63e fec2 98bd 582a bcbd
00000050: 4631 ebbd 3ee1 2b3e c78f 4b3e 6468 3c3e
00000060: 7293 f03d 3372 6dbc b1ba 9c3d 6d7a c53d
00000070: 5121 94bb f2d7 b03e d596 37be 555c bc3d
00000080: f213 1f3e fb82 843d ece4 123e 8829 ca3d
00000090: fea4 433c 50f4 a8bd cb04 5b3e e4bc bc3e
000000a0: 7dac 74bd e1f0 913d 0402 103d eb03 3bbc
000000b0: b2ec c7be c10f 0a3c ce85 69be df87 66be
000000c0: d3ba b2bb 51ef 123e 2b5c 63be c54b f9bd
000000d0: 2f87 0ebe 90bc 69bc 1ef6 30be 8306 9cbe
000000e0: 9e1b 36be 1561 96bc 2026 193e 1c80 3bbe
000000f0: 0e48 8dbd 0e98 6bbe b34d c2bc 481b 54be
00000100: 3504 2d3e 0a88 04be 8531 003e 5a95 ca3c
00000110: 59ea 083e 911e c33e 17fe a13c 841e 873e
00000120: db68 3b3e 6232 f9bd 7704 d73d e0a6 833e
00000130: a22d 313e e2ef 683e 15e9 993e e0a9 ca3d
00000140: c260 c33e 06c1 f13d 8b10 e0bd 5586 39bd
00000150: 4181 ec3d de33 ce3e 8a63 223d 449e 89bd
00000160: 804b babd e251 813d 34ee 21be 4138 16bd
00000170: bfc6 65be a86f dbbd bdb3 a83e b2f7 dabd
00000180: 0535 af3e ac5a 5fbe d1d1 29be d272 c6bd
00000190: 082f eb3d 212a 36be 3d0d 963d 14f6 f13d
000001a0: dc00 233e f09a 8fbe 90a9 c6be 3d07 d3bc
000001b0: fe30 173d 25d2 dcbd e916 393c 0fb5 08bd
000001c0: 0fd5 b1bd 59c1 0fba c860 dc3d 4e7f f7bd
000001d0: b848 a0be bae4 89be 201a 5ebe a6a7 113e
000001e0: c79c 91be e00c 4ebd c35c 4f3c 5750 fb3d
000001f0: 4ffa 823e 940a 1d3e 4eb4 94be 5b40 6bbe
00000200: e06d ebbe b6d9 a7bd ee76 213d f24c 0b3e
00000210: 1880 40be d3b9 853e decc 573e f9a9 61bb
00000220: c037 ff3c 6d64 3f3e 987b c13d 0062 d6bd
00000230: fec3 c73d 572a f73d f7b0 033e f03e 353e
00000240: 181e 58bd 2810 c1bd 5608 04be 6034 7e3d
00000250: 0249 c9bc a6e6 203d cbc9 83bd fe6a 9c3d
00000260: 75d7 893e e4bd a3be 4000 f9bd ae55 49be
00000270: 40c6 52be 6dc1 35bc eda5 53bd e3e3 7b3e
00000280: c690 213e c3cf b53d c332 abbe 6644 073e
00000290: 1068 603e b644 8a3d 40fe e939 beb9 81bd
000002a0: 01f9 ccbd 82d8 003e 33fd 46be 1fe9 b13a
000002b0: d48c 84ba 09a3 b6be 8a01 8cbe c6f0 e73e
000002c0: 335f 36be 11d9 093d 8401 6bbd 4e8e cfbe
000002d0: 98bf 483e ae4e bcbd bcf8 3f3e c4c2 063d
000002e0: 38e9 013e 8502 b6bd 435f 3bbd d288 0d3d
000002f0: 6adc 6c3d a2f3 d03d 7282 9bbc 37ec 0bbe
00000300: 2522 d33e 6bf4 2fbe a46a 223c 7cf7 b63d
00000310: 116f d7bd 2b76 143d 81bc 08be 488d b6bd
00000320: 06b2 e13d b974 d2bd 1220 68be 3772 1b3d
00000330: bb30 cd3d ddf4 97bc 75b2 fcbd c4f9 633d
00000340: 939e 01bd b502 493c 78f5 f3bc 0a8e 11be
00000350: fd1f c5bd 13c1 1d3e 82ae 1cbe 2d08 133d
00000360: 0313 98bd 9ce1 8abd bb44 62be 8ae9 293e
00000370: 50d6 ce3d ea11 8c3d 3e1d 52bd 2e33 b2be
00000380: a801 ec3c f068 073c d052 a23e 177b 00be
00000390: 0d31 823e d77f 873e 7ba4 333e 7f82 85be
000003a0: c7c4 1ebe 0185 e13d 13a7 5fbe 1fd6 ad3d
000003b0: 0d46 aabe 87d1 43bd 485a 323d 9bc7 353e
000003c0: a52f 88bd 86b4 8dbe 29de 3f3e 83af bcbd
000003d0: 14f4 4dbe fed5 6f3e 7660 8f3d 8b5a b9bc
000003e0: cbda a8bc 96ff 7f3c 291a c73d b1d5 6a3d
000003f0: baf0 153e 0346 3fbe c553 18bc d92a 12bd
-0.0330282 0.19274822 -0.14574713 0.1495711 -0.027151091 -0.28215784 -0.04222621 -0.07600562
-0.16468091 -0.16509596 -0.11405915 -0.27939603 -0.14261352 -0.15668143 0.046241213 0.17826934
0.2442186 0.35690835 -0.07459067 -0.09187764 -0.114840075 0.16785142 0.19879065 0.18399197
0.11746873 -0.014492559 0.07652796 0.096424915 -0.004520573 0.34539753 -0.17928632 0.091972984
0.15534952 0.06470295 0.1434514 0.09871203 0.011941193 -0.08249724 0.21388547 0.36862862
-0.05973481 0.07126022 0.035158172 -0.011414508 -0.39047772 0.008426608 -0.22804949 -0.22512768
-0.0054544 0.14349104 -0.22203128 -0.12172655 -0.13918756 -0.014266148 -0.17281386 -0.30473718
-0.17783973 -0.01835684 0.1495595 -0.18310589 -0.06898509 -0.23007223 -0.02371869 -0.20713532
0.16896136 -0.1294252 0.1251889 0.02472942 0.13370647 0.38109258 0.01977448 0.2639047
0.18301718 -0.12167813 0.104988985 0.25713253 0.17302564 0.22747758 0.3006064 0.09895682
0.38159758 0.118043944 -0.10940655 -0.045294125 0.11548091 0.40273947 0.03964571 -0.0671964
-0.09096432 0.06314446 -0.15813524 -0.03667474 -0.22439097 -0.10714656 0.3294963 -0.106917754
0.34220138 -0.21811932 -0.16583945 -0.09689869 0.1148358 -0.17789508 0.07326744 0.11814514
0.15918297 -0.28047895 -0.3880124 -0.025760287 0.036911957 -0.107822694 0.011296966 -0.033375796
-0.08683216 -0.0005483828 0.10760647 -0.12084828 -0.3130548 -0.26932317 -0.21689653 0.14224109
-0.28439924 -0.050305247 0.012656393 0.12271183 0.25581595 0.15336066 -0.29043812 -0.22973768
-0.45982265 -0.08195822 0.03942006 0.13603571 -0.18798864 0.26118335 0.21074244 -0.0034433587
0.031154513 0.18690653 0.09447402 -0.10467911 0.097541794 0.120686226 0.12860475 0.1769979
-0.052763075 -0.0942691 -0.12893805 0.062061667 -0.024570946 0.039282463 -0.06434973 0.07637595
0.26922193 -0.31980813 -0.12158251 -0.1966159 -0.20583439 -0.01109348 -0.05167191 0.2459865
0.15777883 0.08877518 -0.33437166 0.13209686 0.21914697 0.06751387 0.00044630654 -0.06334256
-0.10008431 0.12582591 -0.19432525 0.0013573504 -0.0010112771 -0.3567126 -0.27344924 0.45300883
-0.17809753 0.033654276 -0.057374492 -0.40538257 0.19604337 -0.091946945 0.18747228 0.032900587
0.12686622 -0.08887199 -0.045745146 0.03455431 0.05782739 0.10202719 -0.0189831 -0.13664328
0.41236988 -0.17183082 0.00991312 0.08933923 -0.10519231 0.036245506 -0.13353159 -0.08913666
0.110202834 -0.10276169 -0.22668484 0.03795072 0.1001906 -0.018549377 -0.123387255 0.055658117
-0.03164537 0.012268712 -0.029780135 -0.1421434 -0.09625242 0.15405683 -0.15300944 0.03589647
-0.07425501 -0.06781313 -0.22096531 0.16592994 0.100994706 0.06839354 -0.05129742 -0.34804672
0.028809384 0.008264765 0.31703806 -0.12546955 0.25428048 0.26464722 0.17543213 -0.26076123
-0.15504752 0.110116966 -0.21841078 0.08488106 -0.3325657 -0.047807243 0.04354313 0.17751925
-0.066497125 -0.2767679 0.18737091 -0.09213164 -0.2011264 0.23421475 0.0700082 -0.022626182
-0.020612141 0.015624901 0.097217865 0.0573327 0.14642611 -0.18679051 -0.009297316 -0.035685394

bias f4 [4]
00000000: b0ad 4b3e 33a3 16be e1d7 4b3c 1471 803a
0.19890475 -0.14710693 0.012441606 0.0009799325

momentum_buffer f4 [12, 3, 4, 4]
00000000: 0e5e 09bd 76d9 0cbd 5723 d1bc f14f ffbc
00000010: 6983 9bbc c248 ddbc 6b4d 1abd be8a 39bd
00000020: f288 57bc 00ca 89bc 9a25 0abd 84f5 3abd
00000030: bcb2 c2bb d02b 67bb 7900 ffbc f192 41bd
00000040: e6fd 12bd cee4 09bd 10ef c7bc 5644 fbbc
00000050: 3542 87bc 6ecd bebc cfd2 05bd c4a3 24bd
00000060: 8017 fabb be87 3bbc 01ac e0bc b43e 20bd
00000070: 3090 cf3a 50d8 f13a f259 d5bc 26df 20bd
00000080: a3bb 57bd 3adf 3fbd 9dd2 05bd 5836 21bd
00000090: 10e1 e7bc b888 06bd 1d46 24bd dea1 48bd
000000a0: 3799 aebc 7d52 b4bc 47b5 14bd 864b 3fbd
000000b0: 29d9 6dbc b2f7 43bc babc 11bd 8aa8 37bd
000000c0: 0b0b 5d3c 5eda bb3c c591 903b 7262 a4ba
000000d0: 0d60 073d 9cd1 e93c 7caf e2ba 304b 67bc
000000e0: 4f1b e63c 103a ac3c a4d8 7fbb 6eff d0bc
000000f0: 9335 4c3b 3c07 c13b 8c2a e939 d160 99bc
00000100: f296 cc3c 5ee2 f13c 474f 0b3c 6c33 cf3a
00000110: 81fe 313d 2253 113d c2bc d83a 4669 2fbc
00000120: 50a2 1d3d 0303 ea3c 55eb 573a 9e08 a7bc
00000130: 7c2a 773c 5a57 503c 5cde b93b 820d 4cbc
00000140: 7a5e 6b3c e6e9 a33c 7736 22bb 900b eebb
00000150: 17c1 003d 1ab3 c73c ab80 48bc f6ac c5bc
00000160: fa49 e63c d5fd 9f3c 6299 38bc 2314 0abd
00000170: 6c72 7a3b a44e 023b 4565 d9bb 32db cabc
00000180: 48db 9e3c 92a1 893c 8d85 963c aff9 5e3c
00000190: 8f99 073c 14f7 953b 286f 383c b346 853c
000001a0: b097 dd3a 3e5d b6ba 0daf 05bb e870 193a
000001b0: 701a 79ba dad3 b7bb 8e88 d3bb 3e1d 99bc
000001c0: e48c f33c 6c85 da3c 8a6c d63c 89dc ba3c
000001d0: cf1a a33c 5e77 893c b439 b73c ca76 c73c
000001e0: 72d7 5e3c 0048 423c c281 443c 1ac9 2a3c
000001f0: 1a83 0c3c 8e3e 093c 8418 c83b ee5b 13bc
00000200: 7e28 243c 178d 3e3c ee46 823c a40b 4e3c
00000210: a0bb 843a c083 1e3b 9073 6e3c e947 7f3c
00000220: 20a4 49ba e092 9138 82b7 ca3b 3034 843b
00000230: b899 91ba f02d 27ba 10a0 b239 8a08 46bc
00000240: 0c11 7fbc 70b5 7cbc 402b ffba 6a55 a93c
00000250: 244b 2a3c d0bc aa3b e8da 913b 6094 0f3d
00000260: b874 823c 6a68 663c 171a 883c 814a 183d
00000270: f0de 033c 862b 2f3c 6efc cf3c 3433 243d
00000280: 902c 15bb 001c 6fbb 00e8 69b7 69ba 923c
00000290: b6c4 8c3c 0042 1e3c a01f 593a 2f6f c93c
000002a0: 1e74 a83c 3f3c 8c3c 03fb 4a3c 4790 dc3c
000002b0: 00f6 7a3c 3451 a13c 180e d63c e094 103d
000002c0: b8c0 9f3b 0035 0d39 60b7 053b 6d8e 893c
000002d0: b68f cd3c f813 5e3c 78dd d93b baa4 f73c
000002e0: eb38 0c3d e001 e63c 9293 ac3c 62ab 083d
000002f0: b0ee 153d ca6a 243d bd47 273d bc92 2d3d
00000300: e841 bbbc 8e38 3ebd fe6b b7bd 35c0 bcbd
00000310: 4816 a3bb 48e0 15bd 2cff bfbd e652 e9bd
00000320: 570b d2bc 9fee 2fbd 555f 83bd a093 aebd
00000330: 1b77 12bd c9c6 2abd bfe2 2cbd f457 6ebd
00000340: b32c 99bc 3526 24bd be05 b3bd bcf5 c1bd
00000350: 98fa a5bb 040b 12bd 76a1 c2bd 2fef f2bd
00000360: 1b13 f3bc 6c37 42bd ceab 8fbd 5056 bcbd
00000370: 8ccb 25bd 8480 4dbd 6a94 56bd 290e 87bd
00000380: a8b5 8f3b 0638 62bc 1854 82bd a609 a1bd
00000390: acea b63b 4183 9ebc 6783 a1bd f3d2 dfbd
000003a0: 2158 f9bc 34a8 2abd 3141 7fbd ba3e b5bd
000003b0: 1af9 42bd d376 57bd 001b 59bd 1837 8bbd
000003c0: 7a1f 8d3c e0bf 023b 928c 22bb bfcb 843c
000003d0: 463f 803c 607d 9fb9 a241 48bc 6e85 4fbb
000003e0: b6f2 46bc aaca 64bc e15f 2dbc f02b 59bb
000003f0: d8a1 b7bb aa25 efbb 482c f73a e01a 91bb
-0.033536963 -0.034387074 -0.025529547 -0.031166049 -0.01898356 -0.027012233 -0.037671488 -0.04529833
-0.013155209 -0.016819954 -0.033727266 -0.0456443 -0.005941717 -0.0035273917 -0.031128155 -0.047259275
-0.035886668 -0.03366547 -0.024405986 -0.030672234 -0.016511062 -0.023291316 -0.032671746 -0.04019524
-0.007632196 -0.011445938 -0.027425768 -0.0391223 0.0015835818 0.0018451307 -0.026043866 -0.03927531
-0.05266918 -0.046843745 -0.03267156 -0.039358467 -0.02830556 -0.03284523 -0.040105928 -0.048982494
-0.021313293 -0.02201199 -0.036305692 -0.046702884 -0.014517107 -0.011960911 -0.035580374 -0.044838466
0.013491402 0.022931274 0.0044119083 -0.0012541546 0.033050586 0.028542332 -0.001729473 -0.014117047
0.028089194 0.02102378 -0.003903904 -0.025512423 0.0031159862 0.005890755 0.00044472923 -0.018722923
0.02497432 0.029526886 0.008502788 0.0015808172 0.043455604 0.035479672 0.0016535746 -0.0107062515
0.03848487 0.02856589 0.00082366663 -0.020389851 0.015085813 0.012716139 0.0056722593 -0.012454392
0.014365787 0.020008992 -0.0024751702 -0.007264562 0.031434145 0.024377394 -0.012237708 -0.024130326
0.028111447 0.019530216 -0.011267038 -0.03371061 0.0038215173 0.00198833 -0.0066343867 -0.024762724
0.01939167 0.016800676 0.018374229 0.013609334 0.008276357 0.004576573 0.01125697 0.016269064
0.0016906168 -0.0013913286 -0.0020398528 0.0005853311 -0.00095025357 -0.0056099715 -0.0064554876 -0.018690702
0.029730268 0.026674949 0.026174802 0.022810237 0.019910244 0.016780552 0.022366382 0.024348635
0.013601171 0.011857986 0.011993827 0.010423923 0.008576179 0.008376731 0.006106438 -0.008994086
0.01001942 0.011630318 0.015902963 0.0125760175 0.0010126717 0.0024187416 0.014553919 0.01558111
-0.0007691998 6.9414964e-05 0.0061864266 0.0040345415 -0.0011108434 -0.00063773897 0.00034070062 -0.012086997
-0.015568029 -0.015424117 -0.0019467846 0.020670611 0.0103938915 0.0052104965 0.0044511445 0.03505361
0.015924796 0.01406298 0.016614003 0.037180427 0.008048758 0.010691529 0.025388923 0.040087894
-0.0022762157 -0.0036485195 -1.3941899e-05 0.017911153 0.017183643 0.00965929 0.00082826056 0.02458915
0.020563181 0.017118571 0.012388947 0.026924266 0.01531744 0.019692041 0.026129767 0.03529823
0.004875269 0.00013466552 0.002040349 0.016791547 0.02509294 0.013554566 0.0066487156 0.030229915
0.03423397 0.028077066 0.02106646 0.03336657 0.036604583 0.040140904 0.0408399 0.042376265
-0.022858575 -0.046440654 -0.08956145 -0.09216348 -0.0049770214 -0.036590844 -0.09374842 -0.11392765
-0.025640173 -0.042952176 -0.064146675 -0.08524251 -0.03575812 -0.041693483 -0.04220843 -0.058189347
-0.018698072 -0.0400755 -0.087413296 -0.09470698 -0.0050652735 -0.035655037 -0.095034525 -0.11862027
-0.029672196 -0.047416136 -0.07015191 -0.0919615 -0.04047732 -0.05017139 -0.052387632 -0.06594498
0.004385669 -0.013807302 -0.06363696 -0.078631684 0.0055821743 -0.019349696 -0.07886391 -0.10928907
-0.030437531 -0.041664317 -0.06231803 -0.08849855 -0.047600843 -0.052603554 -0.053004265 -0.06797618
0.017226923 0.0019950792 -0.0024803025 0.016210435 0.015655171 -0.00030420255 -0.012222679 -0.0031665224
-0.012142828 -0.0139643345 -0.010581941 -0.003313776 -0.00560401 -0.007298191 0.0018857801 -0.0044282526

momentum_buffer f4 [12]
00000000: 5bfc 9abc 3d25 2d3d e852 83bc c038 63bb
00000010: 19c0 01bd 5214 98bc 9875 ffbc fa07 253d
00000020: a0c4 64ba f5a6 a33c 2edd 0b3d 34b1 33bd
-0.01891916 0.04227184 -0.016030744 -0.0034671277 -0.03167734 -0.018564377 -0.031184003 0.04029081
-0.0008726809 0.019977072 0.03414648 -0.043870166

momentum_buffer f4 [36, 12, 3, 3]
00000000: 3cb0 8ebb 8533 15bc 657d 1abc fcd3 92bc
00000010: 98c1 57bb b3d9 c43b e4b3 1bbc 7c60 bfba
00000020: c0da d83a baf6 c73b cf05 9cbc b4aa f7bb
00000030: 9551 423c 28f8 a1bb 888c 903a a6a7 923c
00000040: 7a62 27ba e9a8 bfbb ad35 2bbc 7418 ccbc
00000050: c63f 37bd d3b8 01bd fa3f 28bd 0c3b 48bd
00000060: 693c b9bc d500 24bd b594 dfbc 92c0 713c
00000070: 000d 87bc eb57 8abc f2ff 5abd 33e4 52bd
00000080: b6b5 d1bc 83b1 80bc b687 32bd 917e 10bc
00000090: ff56 34bc 1f05 58bc 2f1a 52bb 7051 afbc
000000a0: 59d5 51bc a22f ddba d7a1 57bc c623 78bb
000000b0: 0e7c f9bc 775e 98bc 6b7b ebbc 7d63 a9bc
000000c0: 6055 e9bc 0ce7 47bd 5503 07bd ba68 c4bc
000000d0: 8024 59bc 1a19 6bbc a832 4cbb 5d94 0ebc
000000e0: f1b2 40bb 3868 9cbc 262a ccbc c634 dbbc
000000f0: 5655 d6bc e66e 53bc 0843 b2bc 0ffc 9dba
00000100: c8e6 dabb 3b28 ccbb 5203 9b3b b920 81bc
00000110: bc9b a5bc 1cad 28bb c32f a5bc 7a9a b1bc
00000120: 884f f0ba 0074 a5b9 4aec 293c 1e1f 39bd
00000130: a4f3 38bd 2048 2839 3f0a 20bc 688f 5ebd
00000140: 5861 253b 88c4 9abb 1097 2f3a 8b02 0b3c
00000150: d233 2abc 3376 bd3b a0ec 293c c49a b0ba
00000160: 817a cabc 3fe2 b4bc 88c2 003b b0e4 30bb
00000170: a8cd 5ebb 3e9d 17bc 4b1b a03b 3874 a83b
00000180: d4ab 87bb 94f7 40bb deb8 95bc 80ed bb3b
00000190: 968a e43b 92b3 19bd 7c22 a4bc 79d8 c3bc
000001a0: 8837 4bbd d030 83bd 3de4 15bd c4d1 08bd
000001b0: 5c77 323c 90ae 78bb f883 483b 3ada b83c
000001c0: e842 663b 3835 8b3c 661f c8bb 40de 373b
000001d0: d860 513b 59ea fcbc fae2 13bc 6850 1fbc
000001e0: 5f3e 9e3b 300d 2d3c 197f da3b 417a dcbb
000001f0: 326e 5c3b 7846 3bba 79dd 1fbc 48ad 1b3c
00000200: b850 eaba 24f2 823c 0e72 733c 59d1 a53c
00000210: ab3c 073d 9292 0e3c f440 7d3c 633c cc3c
00000220: 40d5 cc3c 4879 fcbc 1c8d 093c 5254 e63b
00000230: f0c4 d0ba 04a0 4abc 9aeb f7bb 06ae 003c
00000240: 86b2 4c3c 1d90 6f3c e89b 0b3c 30fb 4c3b
00000250: e0b3 deba 2014 55ba 27c7 d03a f606 c4bc
00000260: 6a70 483c c96f 1cbc 8e05 3fbb 0e67 353c
00000270: a9cb 2c3c b9e9 a83c de04 b33c d43a 063d
00000280: 68b8 fd3c 2b6b 3c3d 7e5a 3ebb 0f4d 60bc
00000290: d12b 81bc 0e7a e8bb 2d9f 8b3b 353b dfbb
000002a0: 8a88 663c 4800 883c f6ea 7e3b 9569 28bd
000002b0: 9c68 7abc 3135 8e3b 2ad3 8dbc 527f 273c
000002c0: 08c8 993c 0ed1 88bc 1090 f8bb 566a d53b
000002d0: af39 82bb acc4 163b a1b2 11bd f2a8 0abc
000002e0: 0880 e03c 624f 17bc 6399 f6bc a588 80bc
000002f0: f0cf 94bb 59af 07bc 6081 63bc 8a2b a8bc
00000300: 775c c23c 9ef4 de3c 53c4 8d3c 5644 afbc
00000310: 1057 4d3c c48c a23b f91c ecbb 3c56 b6bb
00000320: 9e48 a6bb a629 1e3c 8e01 263c 84b5 b43c
00000330: 406f 40bc 98d1 7a3b 482e 06bb edcf fc3b
00000340: c1d0 85bc b4f0 043c 6836 583b 4432 7bbc
00000350: 90bb 1ebd 70c6 62bc 90b0 a53a 3392 80bd
00000360: 5201 383c 6f43 393c 63bd 703c 2d4a 9d3c
00000370: 4b75 c03c 1b15 9b3c 93fa 923c 9d5f f73c
00000380: fe7b 813c 583d 073b 32c2 02bc 68fe b0ba
00000390: 88ac 613c 88a7 483c 6a53 733c 2142 523c
000003a0: 4520 4c3b 4122 2f3c 971d 0f3c 7699 8dbc
000003b0: c025 4dbb efd3 6c3c 6357 b4bc ee98 5f3c
000003c0: e8ed de3c 2048 c23b 8e46 3d3c 5d46 a13c
000003d0: dff0 c3bc 3a4b 983c fa85 d53b b036 f43a
000003e0: 3f48 213d f091 873c 5076 4c3c 7e2f 2b3d
000003f0: 965f 7c3c 2031 5fb9 c00d 9fba 615c c73b
-0.004354505 -0.0091065215 -0.00942931 -0.017923348 -0.0032921787 0.006007397 -0.0095033385 -0.0014600898
0.0016544685 0.00610241 -0.019045739 -0.007558191 0.011860271 -0.0049429126 0.001102821 0.017902207
-0.00063852186 -0.005848993 -0.010449809 -0.024914004 -0.044738553 -0.031670403 -0.041076638 -0.048884436
-0.022611814 -0.040039856 -0.027292589 0.014755385 -0.016485691 -0.016887626 -0.053466745 -0.05148716
-0.025599342 -0.015709644 -0.043586455 -0.008819238 -0.01100707 -0.013184815 -0.0032059064 -0.021401137
-0.012807214 -0.0016875158 -0.013161144 -0.003786312 -0.030454662 -0.018599732 -0.028745374 -0.020677323
-0.028483093 -0.048804328 -0.032962162 -0.023975719 -0.013253331 -0.014349246 -0.0031158123 -0.008702365
-0.0029403532 -0.019092664 -0.024922442 -0.026758563 -0.026163738 -0.012904858 -0.021760479 -0.0012053269
-0.0066803433 -0.006230382 0.0047306204 -0.015762674 -0.020215861 -0.0025737947 -0.020164376 -0.021680105
-0.0018334249 -0.0003155768 0.010371277 -0.04519569 -0.04515423 0.00016048597 -0.009768068 -0.05433598
0.0025235023 -0.0047231354 0.000669823 0.008484493 -0.0103883315 0.0057819127 0.010371357 -0.0013473858
-0.024716618 -0.022080539 0.00196472 -0.0026991777 -0.0033997092 -0.009253798 0.004886066 0.0051408075
-0.0041403566 -0.0029444443 -0.018276628 0.0057350993 0.0069745285 -0.037524767 -0.020035975 -0.023906933
-0.049613506 -0.064057946 -0.036594618 -0.033403173 0.010892715 -0.0037945844 0.0030596238 0.022564996
0.0035135094 0.01699315 -0.0061072586 0.0028056055 0.0031948593 -0.030873464 -0.009026283 -0.00972376
0.0048292126 0.010562226 0.0066679833 -0.006728441 0.0033635017 -0.00071439845 -0.009757393 0.009501763
-0.0017876839 0.015984602 0.014858736 0.020241426 0.03301684 0.008701937 0.015457381 0.024931138
0.02500403 -0.03081955 0.0083954595 0.0070290947 -0.0015927833 -0.012367252 -0.0075659277 0.00785399
0.012493735 0.014621762 0.008521058 0.003127765 -0.0016990863 -0.0008128304 0.0015928493 -0.0239291
0.012233833 -0.009548136 -0.0029147598 0.011071933 0.010546603 0.02061926 0.021852907 0.032770947
0.03097172 0.04600064 -0.0029045637 -0.013690247 -0.015767964 -0.007094628 0.0042609186 -0.006812478
0.014070639 0.016601697 0.0038897372 -0.041116316 -0.01528373 0.004339837 -0.017312605 0.010223227
0.01877214 -0.016701248 -0.007585533 0.0065129204 -0.0039741616 0.002300541 -0.035570744 -0.008463131
0.0274048 -0.009235235 -0.030102437 -0.015690157 -0.0045413896 -0.008281552 -0.013885826 -0.020528574
0.023725731 0.027216252 0.017305529 -0.02139489 0.012532964 0.004960628 -0.0072056022 -0.005564479
-0.0050745746 0.009653484 0.010132207 0.02205921 -0.011745274 0.00382719 -0.0020474363 0.0077152164
-0.016334893 0.008114029 0.0032991413 -0.0153318085 -0.038753092 -0.0138412565 0.0012641121 -0.06277885
0.011230784 0.011307581 0.014693591 0.019200409 0.02349343 0.018930962 0.017941749 0.03019696
0.015806194 0.002063593 -0.00798087 -0.0013503553 0.013774045 0.012246974 0.01485143 0.012833149
0.0031147164 0.010689319 0.008735082 -0.01728509 -0.0031303018 0.014454826 -0.022014325 0.013647301
0.027213052 0.005929008 0.011552466 0.019686872 -0.023918567 0.018590558 0.0065162154 0.0018632021
0.03937554 0.01654908 0.01247938 0.04179334 0.015403649 -0.00021285238 -0.0012134835 0.0060840105

momentum_buffer f4 [36]
00000000: a4ab 18bc f0bd 6d3b 3634 1f3b 6020 4c3b
00000010: 6886 553c 4f9a a2bc 84ba 97bc 0053 983c
00000020: e8f7 98bc 4008 173c 90cf 613c 3e11 28bc
00000030: 4cfd f2bb 2ac7 d03b a0f5 483c 3434 873b
00000040: 8006 ceb9 934a 1bbb 36c7 7f39 d87e 19ba
00000050: e837 9cba a06e 643c 6c3a 843b 180e 39bb
00000060: 2245 febb 15c7 643c a9c4 883c 6a9b 1d3c
00000070: 9da7 153c ac85 4b3c e0e1 a0b9 40a7 83bc
00000080: 8fef 32bc 5e80 8bbb 05ed 623c b54c 4abb
-0.009318266 0.0036276542 0.0024292595 0.0031147227 0.013032533 -0.01984897 -0.018521555 0.018594265
-0.018672898 0.009218276 0.013782397 -0.010258017 -0.0074154492 0.0063713985 0.012265593 0.004126096
-0.00039296225 -0.0023695573 0.00024392907 -0.0005855388 -0.0011918517 0.013942391 0.0040352847 -0.002823716
-0.007759706 0.0139634805 0.016695337 0.009619573 0.0091342 0.012422007 -0.00030685868 -0.016070962
-0.010921373 -0.004257246 0.013850455 -0.0030868475

momentum_buffer f4 [4, 324]
00000000: 907e cebb b41c 92bc e0c3 a43b 2ec9 293c
00000010: f007 a03b e223 273c 8848 663c addf 513c
00000020: b40f d83c da88 533b b875 f7bb 3a9f b03c
00000030: bc97 4a3c fe27 093d ee2b 093c ae1d 203c
00000040: 1add 963c 8a03 113c 30f9 74bc e50a 9c3c
00000050: 6443 053d 772e 273c a3c9 883c 9ec4 383b
00000060: d8da 8d3a ae7b 113c 9f55 493b 7cf5 0dbc
00000070: c5c8 a43c 2eae cb3b f23e 7b3c 7e0b a73b
00000080: 403f 103c 87b0 243b 1858 a33c 95bb ab3c
00000090: f5a9 f63b e47a 86bc d22e 0bbc 60c1 eeba
000000a0: 5f64 4dbd f4ae 57bc 86e8 9f3b 39fe 293c
000000b0: fb0e 5c3c cd44 143c 0c3a 8e3b 4ea0 463c
000000c0: eae6 003c 6615 693b b0fa bebb fd49 1c3c
000000d0: 7b3d 3e3c 403b ce3a 3c67 813a dc16 d73b
000000e0: 0511 223c 79d9 9dbb 20c4 753a f53b 343c
000000f0: 9824 cabb 5864 233c 0c74 8d3c 3322 973c
00000100: 5821 89bc a85f 5c3c e48a 6c3c baf9 a43b
00000110: d0bd cf3b de34 743c f0ff 4dba a6f8 d93c
00000120: 543e 30bd b587 40bd c170 7cbd 081a ce3b
00000130: 2a9b 7d3b 4633 e03b f060 2dbc 5cd9 a53b
00000140: 4216 603c dbc4 623c e373 b03c 28e0 bc3a
00000150: 64db c43a 2a59 df3b 03e9 fd3b f071 f93a
00000160: 3c5d 36bc 5850 7abb a43e 13bc 9015 523b
00000170: 9a6e b9bc 8923 ca3c 6d84 4e3c 48b6 d73c
00000180: 2cf7 7abb be22 233c 09ef b23c ecd3 9b3c
00000190: 1689 fe3c a471 7e3c 5e9f aa39 8802 123d
000001a0: 9aa5 4f3d d03d c7bb ed47 7a3c 922c 463c
000001b0: 605c e3ba 202f b33a 0af6 9d3b c0fe 52bc
000001c0: c955 0b3c b808 3fbc 145b 35bc 65a1 793c
000001d0: 207f 483c 34fb 94bc f4fc a3bc 00d8 8bbc
000001e0: ac2e 5e3b 3a3d d83c 39d0 c83c 5c5d a6bc
000001f0: 6f00 253c c6eb db3c babf 88bc 94a6 1bbc
00000200: f330 793c 684c f43b 52ee 3f3c ec1e 553b
00000210: aa57 94bc fa42 fa3b 7ff4 1a3c 1005 91bc
00000220: df84 2dbd ef23 86bc 247c 86bc c8a5 c9bc
00000230: a713 2fbc 7137 a13c e12b 4c3c b90e 8d3c
00000240: e28f cabb 4246 2cbc c661 b6bc f65c fd3b
00000250: 871f b83b 1658 423b 4854 91bc 02e3 003c
00000260: 43d1 803b df2d 10bc 40c3 ac39 9cc8 9a3c
00000270: 1884 f03b 0738 823c f068 e43c f2f4 8a3a
00000280: 47cd 983c 6271 bf3c f234 c03b 4845 423b
00000290: 7c40 b23b 06f1 943c 4767 363d 7255 c63c
000002a0: 3d54 4b3c 4421 9dbb 8565 753c 9d04 9e3c
000002b0: 3fbc 993c 1118 6f3b 034b b9bb 8a43 ff3c
000002c0: c459 e1bb 5a3f 04bc 80af 4eba 348d a03b
000002d0: c9b5 b13b 58fd 4fbb ac28 efbc a23d ba3c
000002e0: c42d 99bb b625 343b cebb 5a3c e079 09ba
000002f0: c583 0a3c 1646 db3b a0b5 ffba 119f 01bd
00000300: 0059 0bb9 80ff 62ba b8c5 9fbb a1b8 6e3c
00000310: 3390 90bc 38c8 383b 218c 783c e060 96ba
00000320: 8013 fab9 79f9 99bc b7ea 48bc 7854 353b
00000330: ead0 80bc 992c 1bbc 82f8 79bc 682a 2ebb
00000340: c8eb 74bc 5850 bdbc 14cd 80bb 908e 903a
00000350: f5e6 f2bc 50e7 d13a 4ada 8d3c 1f96 d13b
00000360: 98e3 87bb 526c fabb 8c21 edbc 1edb 9d3c
00000370: 485b 843a 1955 ce3c a776 cf3b b450 da3c
00000380: 4bf2 4a3d d92a 953c 514d adbd 025b 78bc
00000390: 60a0 8dba 2435 8fbc f37b 893c 783d 4c3c
000003a0: b1b1 953c bcc8 c63c 785c e9ba cdcc 83bc
000003b0: e2b0 a03c f681 563c dce2 cdbb e8c1 863c
000003c0: 9ade b43b 0cc9 1a3c 1a4f 863c b23e 1a3c
000003d0: 3085 e9ba cc45 04bc 009d 5e3a a879 723c
000003e0: 3843 dabb 106e 693b ae1a b83b 20b8 1fba
000003f0: 9c1b a8bb 7765 b5ba 7660 5bbc bec7 c1bb
-0.0063017085 -0.017835952 0.005028233 0.010362906 0.0048837587 0.010201426 0.014055379 0.012809676
0.026374675 0.0032277615 -0.007551875 0.0215603 0.012365278 0.033485405 0.00837229 0.009772701
0.018415976 0.008850941 -0.014951989 0.019048164 0.03253497 0.010203949 0.01669771 0.0028193365
0.0010822667 0.008879585 0.00307212 -0.008664485 0.020115266 0.006215832 0.015334832 0.0050978055
0.0088041425 0.0025129633 0.019939467 0.02096347 0.0075275847 -0.01641602 -0.00849505 -0.0018215589
-0.05014455 -0.013164271 0.004880014 0.010375553 0.013431306 0.0090496065 0.004340416 0.012123181
0.007867554 0.0035565733 -0.005828224 0.009539125 0.011611338 0.0015734211 0.0009872685 0.0065640043
0.009891753 -0.0048171845 0.0009375233 0.011000623 -0.006168913 0.009972654 0.01726725 0.018448925
-0.016739532 0.013450541 0.014437411 0.0050346525 0.006339766 0.014905183 -0.0007858267 0.026607823
-0.04302819 -0.04700442 -0.061630968 0.0062897243 0.0038697221 0.00684205 -0.010582194 0.0050613116
0.013677182 0.013840879 0.021539634 0.0014410065 0.0015018997 0.006816049 0.0077487244 0.0019031148
-0.011130627 -0.0038194861 -0.008987103 0.003205631 -0.022635747 0.024675148 0.012604815 0.026332036
-0.0038294299 0.009957014 0.021842496 0.01902195 0.031071227 0.015530024 0.00032543665 0.035646945
0.05069504 -0.0060803667 0.0152759375 0.012095587 -0.0017346255 0.001367066 0.00482059 -0.01287812
0.0085043395 -0.011659794 -0.011069078 0.015236233 0.01223734 -0.01818619 -0.020018078 -0.01707077
0.003390233 0.026396383 0.02451335 -0.02030819 0.010070904 0.026845824 -0.016692985 -0.009500165
0.015209424 0.0074553974 0.011714535 0.0032519652 -0.018108208 0.0076373788 0.0094577065 -0.01770261
-0.042363044 -0.016374556 -0.016416617 -0.024615183 -0.010685838 0.019679757 0.012461633 0.017218934
-0.006181703 -0.010514798 -0.022263419 0.007732029 0.0056189927 0.0029654554 -0.017740384 0.007866623
0.003931196 -0.008799999 0.0003295187 0.018894486 0.0073399656 0.015895857 0.02788207 0.0010601564
0.018652571 0.023369495 0.0058656866 0.0029643346 0.005439816 0.018181335 0.044532087 0.024210665
0.012410221 -0.0047952253 0.014977817 0.01928931 0.01876652 0.003648285 -0.005654694 0.031160135
-0.006877156 -0.008071745 -0.0007884428 0.004899645 0.005423282 -0.0031736698 -0.029194199 0.022734467
-0.004674645 0.0027488298 0.01335044 -0.0005244296 0.008454268 0.0066917045 -0.0019509085 -0.03164584
-0.00013289228 -0.0008659288 -0.004875865 0.014570386 -0.017646885 0.0028195512 0.015170128 -0.0011472963
-0.00047698244 -0.018795716 -0.012262992 0.0027668756 -0.015724618 -0.009471082 -0.015257003 -0.002657557
-0.014948793 -0.0231096 -0.003930697 0.0011028815 -0.029651145 0.0016014371 0.017316002 0.0063960697
-0.0041470043 -0.0076423073 -0.02894666 0.019269522 0.0010098005 0.025187062 0.006331283 0.02664981
0.049547475 0.018208908 -0.084620126 -0.015158417 -0.0010805242 -0.017481394 0.016782736 0.012465827
0.018273206 0.02426564 -0.0017804047 -0.016088868 0.019615594 0.013092509 -0.0062831473 0.016449884
0.0055197002 0.009447347 0.01639514 0.009414362 -0.0017816182 -0.0080732815 0.0008492023 0.014799513
-0.006660845 0.003561858 0.005618415 -0.00060928054 -0.0051302444 -0.0013839443 -0.013389697 -0.0059137037

momentum_buffer f4 [4]
00000000: 2042 a039 df5b 333c 9e7f 153c c5ee a6bc
0.00030566845 0.010947197 0.009124665 -0.020377526
